FoodClassifier/Classifier/models/FoodClassifier.pth (torch, 35867 bytes, 10 tensors)

conv_block_1.0.weight f4 [10, 3, 3, 3]
000000 ff 38 9e bd 29 70 3f be ee e8 bc 3d 1a 88 b2 3d
       -0.07725715 -0.1869513 0.09224115 0.087173656
000010 5b d6 0b 3e 10 25 7d bc 56 42 21 be 57 00 a5 bd
       0.13655989 -0.015450731 -0.15747961 -0.080567054
000020 f1 4d fc bd 52 b1 42 be 27 79 05 3e c6 8b e9 3d
       -0.12319554 -0.19012955 0.13034497 0.11403613
000030 0c 3f 0a bd 14 b9 32 bd a4 38 0b be a0 80 f0 bb
       -0.033751532 -0.043633536 -0.13595825 -0.007339552
000040 de e6 97 3d a6 49 2a be 88 11 be 3c ac b8 3b bd
       0.07417081 -0.16629657 0.023201719 -0.045830414
000050 18 4e 9e bd 00 97 b0 bc b5 83 28 be ca 06 b5 3d
       -0.07729739 -0.021556377 -0.16456492 0.088391855
000060 c0 a5 02 be 8c 47 13 3d c8 10 f5 bd 6a 93 82 bb
       -0.12758541 0.035956904 -0.119660914 -0.0039848583
000070 9e 64 00 3e d6 da e9 3d 9c 85 24 3e b7 81 5a bc
       0.12538382 0.11418693 0.16066593 -0.0133365905
000080 04 49 ba 3d af 79 b0 bc b3 ed 86 bd 76 48 45 3d
       0.09095958 -0.021542398 -0.06588306 0.048164807
000090 04 12 02 3e 53 2c 2d 3e c0 c4 17 be f6 2f 36 be
       0.12702185 0.1691144 -0.14821148 -0.17791733
0000a0 c3 d5 26 3e 73 20 66 3d c4 c4 3a bd bb 1e 27 bd
       0.16292481 0.05618329 -0.045597807 -0.04080079
0000b0 e9 a3 43 be 89 b9 a6 3b b1 17 1b bc 5c 39 58 bd
       -0.19105496 0.0050880355 -0.009466098 -0.052789077
0000c0 0b 0e 24 be d9 0b 80 bd 30 84 13 3e 8a 39 26 3e
       -0.16020982 -0.0625226 0.14405894 0.16232887
0000d0 1d 11 f0 3d 00 2b 51 be 07 c9 9a bd c4 22 b5 3d
       0.11722014 -0.2042656 -0.07557874 0.08844522
0000e0 4e 31 0b be 92 11 29 3e 04 0e eb bc 5b 93 1f 3e
       -0.13593027 0.16510609 -0.028693207 0.15583555
0000f0 8c fb 27 be 57 be 41 bd 49 83 65 3c 86 a0 2f 3e
       -0.16404551 -0.047300663 0.014008352 0.17151079
000100 11 27 a8 3c 2f 41 c6 bd 1f 31 12 3b cd fb 1d 3e
       0.02052644 -0.096804015 0.002230711 0.15428086
000110 26 25 ac bd 48 8a f0 bd 97 85 cf bd 4b 3c b1 bc
       -0.08405523 -0.11745125 -0.10132902 -0.021635195
000120 db d2 ac bb 8a b3 05 be 77 4f c8 3b 61 e4 8d 3d
       -0.0052741594 -0.1305677 0.0061129886 0.069283254
000130 82 93 f3 bd c2 c7 67 bd 02 b9 8e bc c1 f7 90 bd
       -0.11893369 -0.05658699 -0.017422203 -0.07078505
000140 b0 a5 2d be f2 71 a3 bd 55 ac 04 3e 63 df 57 3d
       -0.16957736 -0.07980718 0.12956364 0.052703273
000150 2e b3 22 3e 4d 59 ef bc 99 09 32 be 4c 2a b9 3d
       0.15888664 -0.029217387 -0.17386474 0.090412706
000160 99 f3 95 3d a6 90 46 3e 61 3f 0d 3e 8b 56 0f bd
       0.07321853 0.19391116 0.13793708 -0.034994643
000170 6a 8c 23 be cc 02 0e 3c 0d f7 1c 3e e4 55 8d 3d
       -0.15971532 0.008667659 0.15328617 0.06901148
000180 ee b7 41 3e a4 be a4 bc 3c dc fb 3d 08 26 9d 3d
       0.1891782 -0.020110436 0.12297866 0.076732695
000190 79 c2 09 3d 3e 7d aa 3d 79 34 43 3e b1 9f 99 3d
       0.03363273 0.08324669 0.19062985 0.07501162
0001a0 ab a4 b5 bd 58 f8 13 3e a9 18 25 3e 38 ee e8 bd
       -0.088692985 0.14450204 0.16122688 -0.113735616
0001b0 57 8d 71 3d 61 5b 12 be 73 e1 be bb e2 09 f4 bd
       0.058972683 -0.14292671 -0.0058252155 -0.119159475
0001c0 a1 63 9d ba 55 51 f2 3d f7 7d 52 bd 45 52 2b be
       -0.0012007841 0.11831919 -0.05138966 -0.16730602
0001d0 eb 01 11 3d 82 c6 a2 3c cf 61 23 b8 18 1e 5a bd
       0.03540222 0.019870047 -3.895332e-05 -0.053251356
0001e0 88 23 8a 3d e2 e6 6f bd 64 cb 90 bc 9a 64 ad 3c
       0.06745058 -0.058569796 -0.01767511 0.021166135
0001f0 1e 81 3c 3d f3 f9 d5 3d 99 75 ea 3c ec 49 0a be
       0.046021573 0.10448065 0.028620528 -0.13504761
000200 19 77 5b bd d4 e3 51 3e 55 c9 ae 3d 7c 86 12 3e
       -0.053580377 0.20497066 0.08534495 0.14309114
000210 26 7b da bd 78 8b f4 3c 42 bf fb bd 2b 53 aa 3d
       -0.1066802 0.02985166 -0.12292339 0.08316644
000220 e2 82 22 bd 5c bf 48 be de 9e 0d be c4 57 0c 3b
       -0.0396756 -0.19604248 -0.13830134 0.0021414617
000230 49 e3 17 bc 91 fe 26 3e bc bb 31 3e 9c ce 95 3d
       -0.009270498 0.16308047 0.17356771 0.07314798
000240 90 eb 0b 3d d5 08 22 bc 2c 89 e2 bd ad f4 50 bd
       0.034160197 -0.009889801 -0.1106132 -0.05101459
000250 77 24 b5 bd 05 1e 21 be ea 9a 3d be 27 ec 06 3e
       -0.08844846 -0.15734108 -0.18516126 0.13176022
000260 9e d1 7d bb 6d 50 ad 3d 0d b9 c7 3d 2a 5f c0 38
       -0.0038729678 0.084626056 0.097520925 9.172999e-05
000270 49 04 af 3d 84 fc 1b 3e bd 3e f2 3d fd b0 33 be
       0.08545739 0.15233046 0.11828373 -0.17547984
000280 7f 70 9c bc e4 a4 33 bd d5 70 31 3e c8 58 34 3e
       -0.019096611 -0.043858424 0.17328198 0.17611992
000290 f7 fc 04 be 43 d8 24 be 86 23 8c 3d fd 47 50 3d
       -0.12987123 -0.16098122 0.06842713 0.050849903
0002a0 2a 83 d9 bd cd 75 a8 3c 79 94 46 3d f7 da 3d be
       -0.10620721 0.020563984 0.04848144 -0.1854056
0002b0 fe 8b 13 3e 22 af 9e 3d 4b d2 31 3e 9a ec 34 be
       0.14408872 0.07748248 0.17365377 -0.17668381
0002c0 35 67 3e be 62 73 e2 3b 53 2d 26 be 16 8d 20 be
       -0.18594058 0.0069107274 -0.16228227 -0.1567882
0002d0 36 28 1d 3d 01 67 c0 bd d0 7c 29 be 08 8b b2 3d
       0.038368426 -0.093946464 -0.16551518 0.08717924
0002e0 61 c9 d1 3d 4b eb b4 3d e4 79 be 3d 06 89 6c 3d
       0.10243488 0.08833941 0.093005925 0.057747863
0002f0 76 20 27 3e 63 fc f2 3d 35 79 47 bd b6 5d 27 3c
       0.16320977 0.11864545 -0.048699576 0.0102152135
000300 3b a7 25 be 1f 93 dc 3d 39 b5 cd bd 8d de 01 3e
       -0.16177075 0.107702486 -0.10044331 0.12682553
000310 fb b6 29 3e 3a be f3 bd 87 74 47 be 37 16 d0 3d
       0.16573708 -0.11901517 -0.19478045 0.10160487
000320 70 57 0d be 5d c7 53 3d ae 12 c6 bd bb f0 16 3e
       -0.13802886 0.0517038 -0.096715316 0.14740269
000330 5f 02 32 be 4b b7 0c be 49 45 ad 3d ab a8 0b be
       -0.17383717 -0.13741796 0.08460481 -0.1363856
000340 2d 2f 8d bc 28 d5 d9 3d 22 fc 2c be e4 3c 28 3e
       -0.01723441 0.106363595 -0.16893056 0.16429478
000350 d7 0e f4 3d c5 b7 57 bd ec 70 08 be a0 d7 4a 3a
       0.11916893 -0.05266549 -0.13324326 0.0007737819
000360 e3 a9 be bc 31 10 50 3e 78 09 f7 3d f1 8b cb bd
       -0.023274368 0.20318677 0.12062353 -0.09938801
000370 da 65 0d be 87 2a 95 3c 4d 15 ba bc 5f 4d 6d bd
       -0.13808385 0.018208755 -0.022715235 -0.057935115
000380 a7 c6 bc bd 70 98 32 bb 23 19 e1 bc a5 ab ab bc
       -0.092175774 -0.0027251504 -0.027477806 -0.02095587
000390 fe 65 26 bd 68 0b c9 3d 3a da 71 3d 3d 7a eb bd
       -0.04062461 0.09816629 0.059046008 -0.114979245
0003a0 69 65 66 3d 6b de 0a be e0 3e 8d 3d fa b0 a8 bd
       0.056249056 -0.13561408 0.06896758 -0.082368806
0003b0 63 0f f0 bd da ad 83 bd 76 77 0c 3e 24 de 3a bd
       -0.11721685 -0.06429644 0.13717446 -0.045622006
0003c0 88 b0 48 3e 81 32 d6 bd d1 b0 15 be c0 7c 52 3e
       0.19598591 -0.104588516 -0.14618231 0.20555401
0003d0 40 7e b9 3d 3c c7 1d 3e 4a 35 4d 3e 9d 22 f7 bd
       0.090572834 0.15408033 0.2003986 -0.12067149
0003e0 9c 22 8f 3d 25 27 20 be 02 7b 7c 3d 52 ef d3 3d
       0.06989023 -0.15639932 0.061640747 0.10348381
0003f0 3f bf 47 3e 07 ff 4d ba 78 cf ae 3d c8 59 3a 3e
       0.19506548 -0.00078581314 0.08535665 0.18198311

conv_block_1.0.bias f4 [10]
000000 3d 06 d4 bd c3 fc 83 3d c8 5f 47 3e e8 42 42 be
       -0.10352752 0.06444695 0.19470131 -0.18970835
000010 c9 05 14 3e 91 84 f7 bd b3 07 80 bd ec 83 b8 3d
       0.14455332 -0.12085832 -0.062514685 0.09009537
000020 68 41 11 3e 66 71 32 be
       0.14185107 -0.1742607

conv_block_1.2.weight f4 [10, 10, 3, 3]
000000 34 0f de 3c 04 0e 93 bd b0 79 61 3c 68 e1 8a bc
       0.027106859 -0.07180408 0.013761923 -0.016953185
000010 81 bb 3e bd 96 32 8e bd 11 42 99 3d e4 ba b2 bc
       -0.046565536 -0.06943242 0.07483304 -0.021817632
000020 57 23 a3 3d 5b 2c 84 bd 1a 8c d8 bc 26 9e 3e 3d
       0.07965725 -0.06453773 -0.026433993 0.04653754
000030 12 82 05 bd dd 02 33 bd 70 46 ac bd 90 0d 68 3d
       -0.032594748 -0.043703903 -0.084118724 0.05665356
000040 49 5a 42 bd 7c 34 3a bd be b0 a0 3d 97 41 04 3e
       -0.047449384 -0.04546021 0.07846211 0.12915646
000050 a0 54 ae 3d 7b c1 fc 3d f0 52 78 bd d0 05 fb 3c
       0.08512235 0.12341591 -0.06062597 0.03064242
000060 be a6 8d 3c 85 6f 3f 3d 0e d8 53 bc ae d5 7c bd
       0.017291423 0.046737213 -0.012929929 -0.06172722
000070 42 ba ad bd 8b 0b 89 3d b3 51 c7 bd 14 97 02 3a
       -0.084827915 0.06691655 -0.0973238 0.0004981619
000080 31 e1 f3 ba cb 44 a3 bd 9e 7b 82 bd 73 57 a5 3b
       -0.0018606541 -0.079721056 -0.06371234 0.005045825
000090 95 06 c2 3d e8 0e 8a bc 52 aa e4 3d 31 e1 1b bd
       0.09473912 -0.016852811 0.111652985 -0.038056556
0000a0 3a dd c6 bc b1 ac b9 bc 5f 40 48 bc 51 f1 a5 3d
       -0.02427541 -0.022665353 -0.0122223785 0.08102668
0000b0 75 2d 8f bd b1 e5 bb 3d ed 68 32 3d 05 70 a0 bd
       -0.06991092 0.091746695 0.043557096 -0.07833866
0000c0 ca a1 4a bb cc ef 97 bc 79 6e 87 bd 70 d9 d4 3d
       -0.0030919188 -0.018546961 -0.06612868 0.103930354
0000d0 59 06 a8 3d 3c 39 20 bc 6d fd b3 bd 0a ee 05 bd
       0.08204336 -0.009779271 -0.087885715 -0.032697715
0000e0 34 16 f0 bc 9a 85 1a 3d 52 18 06 bb dc 8c c8 3d
       -0.029307462 0.03772507 -0.0020461273 0.09792492
0000f0 f2 ee f4 bc 69 ae 45 bd f0 be 39 bc 39 95 4d bd
       -0.029899094 -0.048262034 -0.011337027 -0.050191138
000100 b6 bc 95 bb f3 0d 8f 3d 03 3c eb 3c a7 d2 83 bd
       -0.0045696152 0.069850825 0.02871514 -0.06436663
000110 f0 93 ae 3d 53 c2 86 bd 17 3f 80 bc 67 c0 2e bd
       0.085243106 -0.06580033 -0.015655084 -0.042663958
000120 0f bf b5 3d c9 2e 8e bd 97 f3 1c 3d 38 e5 c7 3d
       0.08874332 -0.06942517 0.038318243 0.09760517
000130 65 8d be 3d 28 84 f5 3c 8a d3 aa bc 6e 9e 45 3b
       0.093043126 0.029970244 -0.020852823 0.0030154246
000140 7f ba b9 3d 55 9c ad bd 4f 9e 85 bd 33 a2 aa 3d
       0.090687744 -0.084770836 -0.065243356 0.08331718
000150 bd d1 76 3d 0a 26 9e 3d 4f 20 a5 3d f9 43 84 3d
       0.060258616 0.07722099 0.08062803 0.06458277
000160 27 01 d1 3c 18 94 72 3b 96 c4 7b 3d fb b8 ca 3d
       0.025513245 0.003701454 0.061466776 0.098985635
000170 45 e4 45 bd 13 74 ae 3d 00 64 58 3b b6 85 46 3d
       -0.048313398 0.08518233 0.003301859 0.04846736
000180 a0 80 38 bc bb 79 9e bd 18 78 7b bd d7 eb 3b bd
       -0.011261135 -0.07738062 -0.061393827 -0.04587921
000190 19 89 ce 3d 62 6f b7 bb 15 e0 cc bd ed f0 79 3d
       0.10084743 -0.0055979947 -0.10003678 0.06102078
0001a0 04 ec b5 3d b3 a6 16 bd 5b 39 3f 3d 9c d2 b4 bd
       0.08882907 -0.03678007 0.046685558 -0.08829233
0001b0 cb ca b9 bb 68 2f 4b 3d 50 c4 50 3c d4 a4 9d 3d
       -0.0056699268 0.049605757 0.012742117 0.07697454
0001c0 66 9b b4 bc 76 58 97 bd 83 ee 83 3d 72 aa 24 3d
       -0.022046756 -0.073899195 0.06441977 0.04020161
0001d0 f2 9d b4 bd 4e 7e 8a 3d 16 59 8a bc bc d4 3e bd
       -0.08819188 0.06762372 -0.016888183 -0.046589598
0001e0 b5 93 68 bd 9a c1 e6 3d 04 ae 59 bd 01 78 cd 3d
       -0.05678149 0.11267395 -0.05314447 0.100326546
0001f0 c6 b0 ba 3d 71 57 f1 3d 8f e3 96 bd db ac f8 bd
       0.09115748 0.11784256 -0.07367622 -0.121423446
000200 f9 ca dd bd 85 cb f7 bd c6 da 99 3d c5 5e a6 3c
       -0.108297296 -0.12099365 0.07512431 0.020308862
000210 d6 2f 87 3d 7f fe 7c 3d c5 3f 9d 3d e8 84 c6 3d
       0.06600921 0.061766144 0.07678179 0.096933186
000220 5c 65 16 bd 47 8b d8 3c 00 eb a4 3d d0 60 cb 3d
       -0.036717758 0.0264336 0.08052635 0.09930575
000230 03 bf d6 3c 86 b9 89 3d 27 c3 78 bb cb d8 bb 3c
       0.026214128 0.06724839 -0.0037958117 0.022930523
000240 a9 a7 c8 3c 05 00 99 bd e9 fe ca 3c da 67 df ba
       0.02449401 -0.07470707 0.024779754 -0.00170445
000250 ea ee 80 bd 5f f8 0a 3d 8b 79 b9 bc 2c 11 8c bd
       -0.06295569 0.03392827 -0.022640964 -0.06839213
000260 83 4d 85 bc 84 f7 d6 bd e4 7b bc 3d 89 4b bd 3d
       -0.016272312 -0.104964286 0.09203318 0.09242923
000270 87 2d d8 bd e4 6f 02 bc 44 c6 9f bc 16 cb b3 3d
       -0.10555559 -0.007961247 -0.01950372 0.0877897
000280 51 0f 50 bc de c7 60 bd 1f 53 7b 3b e5 45 1d 3c
       -0.012698964 -0.05487811 0.0038349105 0.009599184
000290 f4 b1 44 3d 4c 30 0b be d4 7b ab bd 56 12 d7 bd
       0.04802127 -0.13592643 -0.08373228 -0.10501544
0002a0 42 e7 0f bd 4d ac a2 bd 20 23 9c bd 07 80 ec 3d
       -0.035132654 -0.0794302 -0.07623887 0.11547857
0002b0 dd 09 d2 3d 71 7a 61 bc f4 ce db bc 0f 39 c2 3d
       0.102557875 -0.013762102 -0.026832081 0.09483539
0002c0 7d c6 b5 3d 41 e7 d0 3d 40 6c 19 3d ea 09 47 3d
       0.08875749 0.10200358 0.03745675 0.04859344
0002d0 dd 3d 93 3d e3 23 a2 bd 00 a3 c6 ba 46 d1 2b 3d
       0.07189534 -0.07917001 -0.0015154779 0.041947626
0002e0 20 01 28 3b 50 ec 9a 3b bd 93 c0 bd d2 d9 09 3d
       0.0025635436 0.0047278777 -0.09403179 0.033654995
0002f0 54 fc 12 bd ed 15 35 bd 15 8a 0c bd a8 36 ac bc
       -0.03588517 -0.044210363 -0.034311373 -0.021022156
000300 ea 7d 76 3d 92 70 51 3c 76 40 8d 3d 96 b0 3e 3d
       0.060178675 0.0127831865 0.068970606 0.046555124
000310 41 13 16 3d 56 3d c7 3d ba e4 96 3d 28 fa 9d bd
       0.036639456 0.09728496 0.07367845 -0.07713729
000320 e0 a7 a4 bd fd 83 f6 bb 34 cd e3 bd f1 c6 49 3c
       -0.08039832 -0.0075230584 -0.11123124 0.012315498
000330 33 93 11 3d 85 dc b3 bd 26 d7 2c 3d cc 61 d7 3d
       0.03554077 -0.08782295 0.04219737 0.105167
000340 40 a3 86 bd 53 21 a7 bd ae 2e 93 bc 6a ec c5 3d
       -0.06574106 -0.08160653 -0.017966595 0.09664233
000350 e7 ba e4 3d 89 19 f8 bc 0f fe 64 3d d4 2e 83 3d
       0.11168461 -0.030285614 0.05590635 0.06405416
000360 18 ee 78 3d 08 c1 c0 bd 66 03 85 bc 83 3f a6 bd
       0.06077394 -0.09411818 -0.016236972 -0.08117583
000370 8b 3e b1 bd c8 5f b0 3d 9e ae 42 bd ed ac 85 bd
       -0.08654507 0.08612019 -0.04752981 -0.065271236
000380 72 9f 8b bd ea af b6 3d 54 32 07 3d 7c 5e 01 bd
       -0.06817521 0.08920272 0.03300698 -0.031584248
000390 b1 16 92 bd 21 18 53 3d 1f 52 3f bc 9f d7 95 bd
       -0.07133234 0.051536683 -0.011677294 -0.07316517
0003a0 4c ab 2e 3d dc 4a b7 bd b2 c4 70 bd 9b e1 9a 3d
       0.04264383 -0.08949825 -0.058781333 0.07562562
0003b0 65 05 07 bd c5 5c c9 3c 26 a3 b2 3c 21 1a c1 3d
       -0.03296413 0.024580369 0.02180631 0.09428812
0003c0 c7 66 c3 3c 7f d5 fc 3c 6f 34 ef 3c 5f b4 ac 3d
       0.023852719 0.030863522 0.029199807 0.084328406
0003d0 b1 15 ab 3d a3 a6 8e bc 72 07 11 bd 31 a2 0e 3c
       0.08353747 -0.017413443 -0.03540749 0.008705662
0003e0 5c 7c d1 bd f9 a8 27 3d 2e a5 94 3c 02 5c 94 3d
       -0.10228798 0.04093263 0.01814517 0.072441116
0003f0 c1 1a 57 bd 54 5f b0 3d 68 92 c9 bd 08 ad 1e bd
       -0.05251575 0.086119324 -0.09842378 -0.038739234

conv_block_1.2.bias f4 [10]
000000 ac 37 d9 3d d9 99 d0 3b a5 93 06 bc e2 fb 93 3d
       0.10606322 0.0063659963 -0.008213912 0.07225777
000010 93 ce 82 3d 0d 5d 46 bc ff 85 67 3d a2 73 83 bc
       0.06387057 -0.012107146 0.056524273 -0.016046349
000020 84 e5 a5 3b 74 22 57 bd
       0.005062761 -0.05252309

conv_block_2.0.weight f4 [10, 10, 3, 3]
000000 ed 79 21 3d 7d d0 f5 bc 7e e4 ac bd ae e3 ae 3d
       0.039422918 -0.030006642 -0.08442019 0.0853952
000010 c2 62 49 3d 7f 70 9d bc fb a7 b7 bd b0 05 6a 3d
       0.04916645 -0.019218681 -0.089675866 0.05713433
000020 da f7 ae 3c 60 30 b0 bd 48 5f 29 bd af e0 8a bc
       0.02135842 -0.08602977 -0.041350633 -0.01695284
000030 bb 2e 6d bd af 46 d2 3c e7 6d bc 3d 3e 19 99 bc
       -0.057905894 0.02566847 0.0920065 -0.018688794
000040 35 9b c5 3d 1b c1 25 bd 2d 31 d4 3c ab f8 f9 bc
       0.09648744 -0.040467363 0.025902355 -0.030514082
000050 b2 69 a4 3d bd 11 2b bc cb a8 b0 bd 55 6a b3 bd
       0.08027972 -0.010441241 -0.08625945 -0.087605156
000060 e9 87 84 3c 55 e1 d5 bc 4a c3 fa bc dd db 81 bd
       0.016178088 -0.026108423 -0.0306107 -0.06340764
000070 e0 d9 89 3a ae b5 44 bd f6 15 0c bd e8 79 0c 3d
       0.0010517202 -0.048024826 -0.03420063 0.034295946
000080 a8 c7 2f bd a5 a2 06 bd 0c e6 1e bd 46 ff d8 3c
       -0.042915016 -0.032869954 -0.03879361 0.026488911
000090 e0 e7 8d bd 65 8a 93 3d 2a 36 56 3c 02 31 01 bd
       -0.06928992 0.07204131 0.013074437 -0.031540878
0000a0 5b 43 a6 bd b0 34 bd 3d a2 32 a9 3c 03 92 c0 bd
       -0.08118316 0.09238565 0.020654026 -0.094028495
0000b0 8b b2 bd 3a a3 7a d1 3c c1 24 f4 bb 69 b5 81 3d
       0.0014472766 0.025571173 -0.0074506705 0.06333429
0000c0 60 74 53 3d 82 ba 8a bd e2 1b c5 3d 4f af b7 3d
       0.051624656 -0.06773855 0.09624459 0.08968984
0000d0 2c e3 4f bd dc cd d4 3d a8 66 65 bd 85 c5 4b 3c
       -0.050753757 0.10390827 -0.056006104 0.012437229
0000e0 d0 38 96 3d f2 a4 82 3d 6e 2e 0d bd f6 d4 4b 3d
       0.07335055 0.06379117 -0.034468107 0.049763642
0000f0 4f 64 bf bd db 5e 39 bd ee e3 b5 3c 43 3d c3 3d
       -0.09345304 -0.045256477 0.022203412 0.09533169
000100 78 c8 66 bd df 95 ca 3d 37 6c 50 bd 79 8f 0f 3d
       -0.056343526 0.09891867 -0.05088445 0.035048936
000110 94 de 09 bd b5 62 05 3d 2d f7 91 3d 67 51 74 3d
       -0.033659533 0.032564837 0.07127223 0.059647944
000120 3d 9d 6c 3d 93 38 16 3d 50 72 ca bd fb 0b 21 3c
       0.05776714 0.036675047 -0.09885085 0.0098295165
000130 b2 c4 97 3d 25 47 31 3d 4b 34 1b bd 6b 24 c1 bb
       0.074105635 0.04328074 -0.037891667 -0.005894234
000140 f2 bf 94 bc 37 02 83 3d b4 f6 0b bd 65 05 c4 3d
       -0.018157933 0.06396907 -0.03417082 0.095713414
000150 60 7b 25 bb 64 f9 a1 bd 9d f9 8c 3d 78 6f 22 3c
       -0.002525054 -0.079088956 0.068835475 0.0099142715
000160 84 a6 c3 3c 90 79 30 3c 1b a3 e4 3d 1a 88 79 bb
       0.023883112 0.01077117 0.111639224 -0.0038075508
000170 2a 12 65 bd 7d 25 fe 3b 18 73 cc 3c 12 6f 26 bd
       -0.055925526 0.007755934 0.024957225 -0.04063327
000180 13 6b 53 3d dd b8 b0 bd d7 9c 27 bd 66 cd 68 bc
       0.051615786 -0.0862901 -0.04092106 -0.014209127
000190 94 d2 8e bd 39 99 d4 bd 4d d9 4d bc e6 0f 99 3d
       -0.06973758 -0.103807874 -0.012564016 0.074737355
0001a0 06 fa cf bd 01 89 21 bd aa b7 a2 bc f8 ef ba 3d
       -0.1015511 -0.039437298 -0.019862968 0.09127802
0001b0 94 e5 d8 3b a6 c8 92 bc 13 da f2 bc 83 52 f4 bc
       0.0066191647 -0.017917942 -0.029645002 -0.0298245
0001c0 1b 67 98 bd 67 bc cb bb df 1f 52 bd 93 b3 1e 3d
       -0.07441541 -0.0062175277 -0.051299926 0.038745474
0001d0 24 16 18 bd 32 06 eb 3b bd 8d ad 3c fe 34 9d bc
       -0.03713049 0.0071723694 0.02118575 -0.019190308
0001e0 30 c3 c9 bd 7a e3 40 bb a5 61 55 bd 6b 6e ac 3b
       -0.09851682 -0.0029432462 -0.052095074 0.0052621863
0001f0 06 76 80 bc 1f 6e a7 3c 03 26 6c bd e8 97 aa bd
       -0.015681278 0.020438252 -0.05765344 -0.08329755
000200 7b 1d 16 bd a3 b6 4b 3c 41 32 51 bd 02 22 2c 3d
       -0.03664921 0.012433681 -0.051073316 0.04202462
000210 a1 ba 18 3d bc 30 7f 3d 88 7c 19 3c bd a2 96 bd
       0.03728736 0.062302336 0.0093680695 -0.073552586
000220 58 00 14 3a ac 8c 9f 3c 27 b7 bd bd b5 99 8a 3d
       0.0005645803 0.019476257 -0.09263449 0.067675985
000230 e4 21 97 3d 89 d7 1e 3d 2d b7 7d bd 4f eb 26 3d
       0.07379511 0.03877977 -0.06194227 0.04075175
000240 2f 51 11 3d dd 30 a8 3d 58 f4 b6 bd d2 6f b9 bd
       0.035477813 0.08212445 -0.089333236 -0.09054531
000250 f2 9c 7a bd d5 85 0d 3d 70 7d 01 bd 2c 77 e3 bd
       -0.06118483 0.03455146 -0.031613767 -0.111067146
000260 73 5c 42 3d 50 3c ae 3d 73 9c e0 3d 6d 86 be 3d
       0.047451448 0.085075974 0.1096734 0.093029834
000270 33 ad ca 3c 9a 2c ad 3d c4 75 8b bd ce 6c b9 bc
       0.024740791 0.08455773 -0.068095714 -0.02263489
000280 b9 91 db 3d 0e b9 1c 3c 6a 8c ef 3c a0 e1 dc bd
       0.10721154 0.009565605 0.02924176 -0.10785222
000290 9e 5c 15 bd 27 6c c0 bd c8 ae 23 3d 5d 99 a9 bd
       -0.03646528 -0.093956284 0.039961606 -0.08281205
0002a0 b0 a7 a5 bd a9 9c c9 3d de 06 cf 3d 92 18 7a bd
       -0.080886245 0.09844334 0.10108732 -0.06105859
0002b0 be 3d bb bc 2d c9 d1 3d a5 6f fb bc 97 0a 12 3d
       -0.02285659 0.10243449 -0.030692885 0.03565463
0002c0 77 a8 a6 bc be ca 98 3d 60 84 02 3d a2 c5 09 3d
       -0.020344002 0.07460545 0.031864524 0.033635743
0002d0 f6 85 9a bd 62 c2 ff 3d 23 3e 1b 3d e7 e7 ce 3c
       -0.07545082 0.124882475 0.037901055 0.025257064
0002e0 6d 35 1a 3b 79 96 9b 3d 8d a4 a4 bc 0c d1 99 bd
       0.002353038 0.0759706 -0.020097995 -0.07510576
0002f0 1a cf c8 3c 88 80 94 3d 01 0a 36 bd 3b 7c 03 3d
       0.024512816 0.07251078 -0.044443134 0.032100897
000300 af e3 90 bd ad 96 b2 3c 00 ff ec 3c 65 db df bd
       -0.07074677 0.021800363 0.028930187 -0.10930518
000310 f9 3f c1 bd fe 7f b3 3b ee 05 95 3d 90 07 e6 3c
       -0.0943603 0.0054779043 0.072765216 0.028079778
000320 af 46 54 bd 28 be ee bc 74 c8 f8 3b 8b bc 19 3d
       -0.05182522 -0.029143408 0.0075922552 0.037533324
000330 c4 68 55 bd c6 20 a5 3d 75 28 95 bd 2e 05 b4 3d
       -0.052101865 0.08062892 -0.07283107 0.087900504
000340 56 3d e1 3d b4 ac df 3d c9 32 cc 3a 57 a3 87 3d
       0.10998027 0.109216124 0.00155791 0.066229515
000350 28 f5 7f 3d 8e 71 7c 3d ff 19 0e 3d 31 57 b9 bc
       0.06248966 0.06163173 0.03469276 -0.022624584
000360 13 ef ef bb 29 07 dd bd fd 96 b1 3d 22 c5 83 3c
       -0.007322201 -0.10792381 0.08671377 0.016085211
000370 77 2f f8 b9 4c 49 95 3d 90 dd 4a 3d 24 58 a7 bd
       -0.0004733761 0.07289371 0.049527705 -0.08171108
000380 58 ca 40 3d c5 a6 af 3d d8 df 60 3d 59 d3 06 bd
       0.04706797 0.08576731 0.054900974 -0.0329164
000390 d0 23 a7 3c 50 36 70 bd 23 67 cd 3d 88 96 85 3c
       0.020402819 -0.058645546 0.100294374 0.01630713
0003a0 1f 6a cf 3c ff 50 47 bc 1b 60 5a bd 29 ad e4 3d
       0.025319157 -0.012165307 -0.05331431 0.1116584
0003b0 e0 95 52 bb a3 df 7e 3d 57 a2 db 3d 01 47 cd bc
       -0.003213279 0.062224995 0.10724323 -0.025058271
0003c0 21 76 03 3c 34 6e 42 3d 52 a2 dc 3d e5 52 01 bd
       0.00802377 0.04746838 0.10773148 -0.031573195
0003d0 c3 8c b0 3d 44 6b e1 bc e9 f4 64 3d c5 cc aa 3d
       0.08620598 -0.027516969 0.055897627 0.08339838
0003e0 3c 64 a3 3d 62 4a 15 bd 39 f7 18 bd 59 8e c0 bd
       0.079781026 -0.03644789 -0.037345145 -0.09402151
0003f0 9c 2c 24 bc 9a dd 38 bc f8 24 84 3c 19 4d 4c bc
       -0.010020401 -0.011283303 0.01613091 -0.012469553

conv_block_2.0.bias f4 [10]
000000 5a 5b b8 bc 59 d1 11 3d ab 58 0a bd 9f e2 5c 3c
       -0.022504497 0.03560004 -0.033775967 0.013481765
000010 99 6a d2 3d 83 8e c9 3c ae 2c d6 3a 1d 38 ad 3c
       0.10274238 0.024604088 0.001634022 0.021144921
000020 7c 18 df 3d b8 63 06 bd
       0.10893342 -0.032809943

conv_block_2.2.weight f4 [10, 10, 3, 3]
000000 50 0d 97 3d eb 27 d6 3d c8 2b 6a 3d a7 c5 67 3d
       0.07375586 0.104568325 0.05717066 0.05658498
000010 de 8e b4 bd cc a4 24 3c 66 31 c7 bd 86 8d b9 3d
       -0.08816312 0.010049056 -0.09726219 0.090601966
000020 0a 96 c7 3d b9 f1 95 3d fc 82 e3 3d dd df 1c bd
       0.097454146 0.073214956 0.11108968 -0.03829943
000030 12 20 84 bd 0f b1 9f bd c5 9d e6 3d 05 38 b2 3d
       -0.064514294 -0.07797443 0.11260561 0.08702091
000040 ea 24 e8 bc 09 78 9b 3d f0 fa ca 3d a5 08 6e bc
       -0.028337914 0.07591254 0.09911144 -0.014528428
000050 ab 80 a0 3d bf 05 60 3d cb db ac 3c c9 d6 8f bd
       0.078370415 0.05469298 0.0211009 -0.07023389
000060 b5 b5 e9 bc ce b8 6d 3d b0 20 f4 bb 3a d7 9a bd
       -0.028529027 0.05803757 -0.0074501857 -0.075605825
000070 91 fe 97 bd c4 65 eb 3a a2 c9 95 bb 6d 04 da bd
       -0.074216016 0.0017959406 -0.0045711556 -0.106453754
000080 16 92 36 bd 9c 48 d8 3c 57 c1 60 3d 38 de 24 bd
       -0.044572912 0.02640181 0.054871883 -0.040250987
000090 7c d2 ab bd a5 84 15 3d 91 70 4f 3d 87 e8 f3 bc
       -0.08389756 0.036503453 0.05064446 -0.029773964
0000a0 f1 a0 80 3d f8 e8 c9 3d c1 93 ba 3d 38 27 05 3d
       0.06280697 0.098588884 0.09110213 0.032508105
0000b0 3f a3 b8 bd 16 46 8a 3c a8 b5 99 3d 1a 6c ba bd
       -0.09015512 0.016879123 0.07505351 -0.0910265
0000c0 e8 ad 5c 3d 1a c8 b3 bd c8 88 df bd 3c 69 db 3c
       0.053876787 -0.08778401 -0.10914761 0.026783578
0000d0 a1 d3 e6 bd b1 1f b0 3a cb 92 dc 3c 2b f8 e2 3c
       -0.11270834 0.0013437179 0.026925465 0.027706226
0000e0 46 1e 1f 3d 5d 1c e3 3d ed e5 98 3d 75 a0 a9 bd
       0.03884723 0.11089394 0.0746573 -0.08282558
0000f0 f8 a9 bd bd a2 d0 ae 3d e8 1f ff 3c 91 01 b3 3d
       -0.092609346 0.08535887 0.031143144 0.08740533
000100 4b 0f c4 3c dc 53 50 3d 9b 39 82 bd c1 16 c4 37
       0.023933074 0.050861225 -0.063586436 2.3375616e-05
000110 8f f0 7b 3d 96 2f 21 bd 20 97 ec bb f2 0b a8 3d
       0.06150871 -0.039352022 -0.007220164 0.082054034
000120 88 3e 26 3d a2 7b 04 3d 32 6b 7e 3d de ed 85 3c
       0.04058698 0.032344468 0.06211395 0.016348775
000130 41 2a ea 3d 35 32 2b 3c 23 99 8a 3d 6b 47 8f 3d
       0.114338405 0.010448982 0.0676749 0.06996044
000140 53 59 82 bd 99 d6 58 bd eb a7 c6 3d f0 af 97 3b
       -0.063646935 -0.05293903 0.096999966 0.0046291277
000150 cf 15 8f 3d 66 cb 8a bd 86 c5 aa bc 0f 0a 9e 3d
       0.069865815 -0.067770764 -0.02084614 0.07716762
000160 ae 9a 86 bd 72 fb a7 bd 1a 54 bc bd 38 53 05 3d
       -0.065724716 -0.08202256 -0.091957286 0.032550067
000170 4d b3 91 3d 29 05 77 3d 79 81 a9 3c 6e 7f c7 3c
       0.07114277 0.060307655 0.02069162 0.024352755
000180 4c 6d 8a 3d 6a 59 9a bb 9a 81 86 bd c7 d8 70 bd
       0.06759128 -0.004710366 -0.06567688 -0.058800485
000190 b5 6e 94 bd 18 57 84 3d 3c e5 bc 3d 26 d1 2e 3c
       -0.07247678 0.06461924 0.092234105 0.010669982
0001a0 a1 20 b6 bc 07 6b b9 3d 45 d8 b9 3c 63 82 b3 bd
       -0.022232356 0.09053617 0.022686133 -0.08765104
0001b0 27 8d d8 bd 79 29 b9 3d 8e 7f f4 bc c8 0f ae bc
       -0.10573798 0.090411134 -0.029845979 -0.02124776
0001c0 0b 9d e8 bc 1a d3 5b bd bb cd 37 3c 54 45 60 3c
       -0.028395196 -0.05366812 0.011218484 0.013688404
0001d0 34 f9 86 3b d0 4e 22 3d 5e e0 b3 3d e9 04 60 3d
       0.004119063 0.039625943 0.08783029 0.054692183
0001e0 aa 79 eb 3c aa 6e 4b bc fd bc 1a bd fb 96 82 bd
       0.028744537 -0.012416521 -0.03777789 -0.063764535
0001f0 73 d0 58 bd f7 a3 2a 3d b0 d2 3a 3a bc 20 67 3d
       -0.052933168 0.041660275 0.0007126732 0.056427702
000200 7d e5 7f bc 41 f3 eb bd de 59 59 3b b5 77 d4 bc
       -0.015618679 -0.115210064 0.0033165137 -0.025935987
000210 38 2f c2 bc 94 fa 3c bd 87 77 27 bd 40 91 8a 3d
       -0.023704156 -0.046137407 -0.040885475 0.067659855
000220 b2 96 9f 3d 5c a9 90 3d 03 e0 a7 3d 49 64 99 3b
       0.07792415 0.07063553 0.08197024 0.0046811444
000230 0c 9d 7b bd cd df 4a 3c 8f 44 5e bd 37 73 43 bd
       -0.06142907 0.01238246 -0.0542646 -0.0477173
000240 dc 05 c0 bd 74 53 15 3c 0a bf ed bd b5 bb cc bd
       -0.093761176 0.009114135 -0.116087034 -0.0999674
000250 59 4c ad 3c b6 c6 05 3d be d4 06 bd 5c 88 8c bc
       0.02115457 0.03266021 -0.03291773 -0.017154865
000260 20 87 2b bd db 98 d8 3c cd 14 71 3d 44 1e e0 3d
       -0.041876912 0.026440075 0.058857728 0.10943273
000270 ee 17 d6 3b ad 0c 9a bc 59 a4 e8 3c 6f 54 64 3d
       0.0065336144 -0.018804872 0.02839868 0.055744585
000280 b2 71 1e bd 40 ef f2 bc ab 48 a1 bd f6 ea 34 bc
       -0.038682647 -0.029655099 -0.078751884 -0.011042347
000290 c5 5a be 3d 02 e1 9b 3d b5 66 71 bd f5 f9 da bd
       0.09294657 0.07611276 -0.05893584 -0.10692207
0002a0 47 c5 bf bd 44 24 ff bc 37 5c 90 bd a0 23 1b bc
       -0.093637995 -0.031145222 -0.070488386 -0.009468943
0002b0 aa ed 1d bd 4f 5f 96 3d 05 57 c7 3d 5e ee 17 3d
       -0.038556732 0.073423974 0.097333945 0.03709256
0002c0 06 47 c3 bd 83 84 6e bd 53 d7 ab 3d 06 0b 6d 3d
       -0.09535031 -0.05823184 0.08390679 0.05787184
0002d0 a4 09 92 bc 30 a0 ac 3b 38 91 92 3c 79 0d d4 3d
       -0.017826863 0.0052681193 0.017891511 0.10354132
0002e0 b7 ae 95 3d 61 d7 89 3d 2c 2f e4 3c 84 a9 8e 3c
       0.07308715 0.067305334 0.027854525 0.017414816
0002f0 13 a8 97 3d af 8e 98 bd 70 ed ee bb 12 f0 8e bd
       0.074051045 -0.0744909 -0.0072914883 -0.069793835
000300 1d 24 cc 3d fe 28 1b 3d eb 09 bd bd 63 f0 6f bd
       0.099678256 0.03788089 -0.09230407 -0.05857886
000310 cc 21 84 bd 7c 79 a6 bd 62 f2 03 bd 61 03 ae 3d
       -0.06451759 -0.0812864 -0.032213576 0.08496738
000320 90 a1 ea 3b 2e 37 d2 bd 15 39 ca bd 64 36 e1 bc
       0.007160373 -0.10264431 -0.09874169 -0.027491756
000330 10 cc 29 bd 08 a9 49 3c a1 66 cf bd 9e 10 27 bd
       -0.041454375 0.012308367 -0.10126997 -0.04078733
000340 1d a4 c6 bd bf 54 92 3d d6 b2 2e 3d 72 a6 5b 3d
       -0.09699271 0.0714507 0.04265102 0.05362553
000350 14 36 8c bd d2 01 8c bd 7f bf d2 3d 91 f8 d5 3d
       -0.06846252 -0.06836285 0.10290431 0.10447801
000360 58 eb 3d 3c 00 dd a6 3b 06 ea 10 3d d6 f3 14 3d
       0.011591755 0.005092263 0.035379432 0.036365353
000370 44 4f c2 bc 45 b3 bd 3d 08 13 0b bd ec f1 22 bd
       -0.023719437 0.092627086 -0.033953696 -0.039781496
000380 3a ff 7d 3d 7d 99 31 bd d3 9e 39 bd 7c c8 99 3c
       0.06201098 -0.04335927 -0.045317482 0.018772356
000390 0c 67 5b bd 04 ca 99 3c 20 0c ea bc 1e 06 0b bd
       -0.05356507 0.018773086 -0.028570235 -0.03394138
0003a0 42 25 8c bd b7 97 91 3d ec a8 c4 bd 89 5d c5 bd
       -0.06843044 0.071090154 -0.09602532 -0.09636981
0003b0 ae 7b 08 bd 80 09 8e 3c e3 12 a6 3d 55 05 a6 3d
       -0.033321075 0.017338514 0.08109071 0.08106486
0003c0 ce d9 48 3d ae 8f 3a 3d ad 73 85 3d c0 7d c0 bc
       0.04903584 0.04554718 0.06516204 -0.023497462
0003d0 2e 11 b6 bd 60 75 53 bb 9f 3d 9e 3d 16 64 89 bd
       -0.088899955 -0.0032266006 0.07726597 -0.06708543
0003e0 c1 0e d7 bd 28 22 da bc 12 96 2a bd ce c2 12 3d
       -0.10500861 -0.026627615 -0.041647024 0.03583031
0003f0 23 94 c3 3d d5 a3 bf bd ef 72 af 3d af 5f b5 3d
       0.09549739 -0.0935742 0.08566844 0.08856141

conv_block_2.2.bias f4 [10]
000000 19 87 2c 3d f7 0f 09 3d a4 0a ae bd 90 e8 a4 3d
       0.042121027 0.03346249 -0.08498123 0.0805217
000010 5f d3 8a bc 73 5a c6 bd 0d 61 0f 3d ff 6b 69 3d
       -0.016946493 -0.096852206 0.035004664 0.05698776
000020 0c 95 e9 bc 44 3f 41 bc
       -0.028513454 -0.011794869

classifer.1.weight f4 [3, 1690]
000000 bd 34 c5 3b 90 68 5b 39 8d 3e 90 3b 7f a6 6a bb
       0.00601825 0.0002092442 0.004401988 -0.0035804806
000010 b6 94 eb bc c8 0d 80 bc 45 6e 48 3b ca cb 41 3c
       -0.028757434 -0.015631571 0.0030583304 0.011828372
000020 60 1c 92 bc b1 d2 d2 bc 5b e8 0b bd 4f 26 ab bb
       -0.017835796 -0.025735231 -0.03415714 -0.0052230726
000030 d1 df 5c ba fd 3b 93 bc c1 b3 4c 3b da 86 23 3c
       -0.0008425685 -0.01797294 0.0031235071 0.009980882
000040 71 ea 89 3b ef 76 1f bd 74 cf 99 bc 86 59 8c bc
       0.004208856 -0.038931783 -0.01877568 -0.017132532
000050 ee 88 f4 3b f7 c2 6b bc 1c 2d b8 bc b5 3c 1a bd
       0.0074626124 -0.014389745 -0.022482447 -0.03765555
000060 d4 f8 17 3c 01 2a a8 3c 79 e0 ca bc 99 b7 e2 bc
       0.009275634 0.020527842 -0.02476524 -0.027675437
000070 72 95 db bc 65 14 d4 bc cc a3 10 bd 32 b7 71 bc
       -0.02680466 -0.025888631 -0.03531246 -0.01475315
000080 40 72 0d bd 9c 63 48 bb 8f 0f 35 bd 3c 2f 1f bd
       -0.034532785 -0.003057695 -0.04420429 -0.038863406
000090 c6 77 1b bc 7a 2f 73 3a 34 99 ec 3b 24 28 08 bd
       -0.009489005 0.0009276789 0.0072204117 -0.033241406
0000a0 c6 2d 10 bc 9a ae 31 bd 10 a3 eb bc ad 89 d4 3a
       -0.008799976 -0.043379404 -0.028764278 0.0016215347
0000b0 e1 28 82 bc 18 99 39 bd f2 b8 97 bc 06 14 3c bb
       -0.015888633 -0.045312017 -0.018520806 -0.0028698458
0000c0 8f 28 7a bc 7d 08 14 bd d2 65 9b 3b ec 45 b8 bc
       -0.015268459 -0.036140908 0.0047423625 -0.022494279
0000d0 8f 87 25 bb b7 3c c4 bb 1b cf a6 ba 8d e6 19 bd
       -0.0025257801 -0.005988683 -0.0012726517 -0.037573386
0000e0 55 36 83 3a c1 73 6f bc 7d 4b 36 bd a8 ab da bc
       0.0010010699 -0.014615 -0.044505585 -0.02669318
0000f0 62 f8 1d bd 22 4e 10 bd 9e 2d 91 bc 95 af eb b9
       -0.038566954 -0.035230763 -0.017721947 -0.00044953512
000100 bb 2d 7c 3c 3d f1 5c bc e5 a6 31 bd 81 34 4d bc
       0.015391762 -0.01348525 -0.043372054 -0.012524725
000110 d6 45 50 bc 3d 3e a4 bc 94 13 1c bd 00 3d a0 bc
       -0.012711963 -0.020049209 -0.03810461 -0.019560337
000120 3d bc ae bb 55 5b f0 bc 01 12 71 bc f6 67 95 bc
       -0.0053324983 -0.029340426 -0.014713765 -0.018238049
000130 da 65 da bc 61 1a b9 bc 7b d8 c6 bc d9 84 32 bd
       -0.026659895 -0.022595586 -0.024273148 -0.043583725
000140 08 d4 95 b8 5b 0e 0f bd 6d be 22 bd e2 7c fc 39
       -7.1443676e-05 -0.0349258 -0.039732385 0.0004815823
000150 eb 08 0f bd 48 64 20 bd 78 ce 8f bc 57 d2 24 bd
       -0.034920614 -0.039158136 -0.017554507 -0.04023966
000160 1b 90 13 bd fc 63 f3 bb ff 4f 69 3b bf 86 0e bd
       -0.0360261 -0.0074276906 0.003560066 -0.034796473
000170 0d 24 17 bd b1 c9 28 bd 3a 55 aa bc 9b dc a4 bc
       -0.036899615 -0.041207973 -0.020792592 -0.020124724
000180 a8 2e 10 bd 98 86 8b bc 24 c3 be bc 40 29 bc bc
       -0.035200745 -0.017031953 -0.02328641 -0.022968888
000190 7f 70 8a 3b d2 02 00 bd ab 5d 85 bc 19 5f 55 bb
       0.0042248364 -0.03125269 -0.016280016 -0.0032557903
0001a0 6c f0 37 3b c3 37 d2 bc 3b ba 52 bc 7e 5d 95 bc
       0.0028066887 -0.025661355 -0.012861784 -0.018233057
0001b0 2f de 06 bd f7 01 25 bc 52 43 4a bd fe 91 1b bd
       -0.032926735 -0.010071269 -0.049380608 -0.037981026
0001c0 4a 56 fe bc a8 3f cf bc d1 b1 dc bb d6 57 ec bc
       -0.031047005 -0.025298908 -0.0067350646 -0.028850477
0001d0 84 55 09 bc 56 e5 05 bd 20 8d f2 bc bc 77 7c bb
       -0.008382205 -0.032689415 -0.02960831 -0.0038523516
0001e0 b3 d9 1c bb 8e 25 0e bd 6e 6b 40 bd 01 ee d1 bb
       -0.002393347 -0.034703784 -0.046977453 -0.006406546
0001f0 e8 9f 16 bd 8f 53 8c bc b3 48 52 bc c1 19 24 bd
       -0.036773592 -0.017129688 -0.012834716 -0.040063623
000200 27 3a a4 bc 61 5f 64 3a 6d 03 9a bc 7f 43 53 bc
       -0.02004726 0.00087117223 -0.018800462 -0.01289451
000210 60 18 da bc 4b ad 1c bd ef f2 04 bc 30 ef a9 bb
       -0.026622951 -0.038251203 -0.0081145605 -0.005185984
000220 af 8a f3 bc e9 62 95 bc 71 9d f8 b9 d1 c7 09 bd
       -0.029729215 -0.01823564 -0.0004741955 -0.033637825
000230 c6 9a e8 bc f2 68 08 bd 43 0d 9d bc 9d b8 3a bc
       -0.028394114 -0.03330321 -0.019171363 -0.011396554
000240 d2 fb 85 bc 82 67 98 bc d1 45 10 bd 97 e5 43 3b
       -0.016355429 -0.018604044 -0.035222832 0.0029891485
000250 7d 98 83 3b 8f 00 bc 3a fb 8b 26 3b ad fd 9f bc
       0.0040159808 0.0014343428 0.0025413025 -0.019530142
000260 45 1c 1b bd 27 50 31 bd 5a 3c 2e b9 e9 11 4f 3c
       -0.037868757 -0.04328933 -0.00016616416 0.012638547
000270 d2 77 41 bc 55 14 14 3c f1 b7 58 3c 99 65 9b bb
       -0.011808353 0.009038051 0.013227449 -0.004742336
000280 a5 38 a8 bc c0 14 0a bd 8c 55 1f 3a 30 91 00 bd
       -0.020534823 -0.033711195 0.0006078116 -0.03138846
000290 5c 87 18 bd 87 92 69 bb 54 e8 83 bc e9 7b c8 3b
       -0.037238464 -0.0035640316 -0.016101994 0.006118287
0002a0 e6 23 98 bc fa 5a 4a bc 4e 3e d2 3c 9c aa 8d 3c
       -0.018571805 -0.012350792 0.025664475 0.017293267
0002b0 c9 db c1 bb ef 5f ee 3c 8b 40 9e bc 26 1c b2 3b
       -0.005916093 0.02909848 -0.019317886 0.0054354845
0002c0 c6 58 98 3b 9a a4 8f 3c fc 28 80 bc d8 6d e8 bb
       0.0046492545 0.017534543 -0.015644543 -0.0070931725
0002d0 15 e2 a9 3a 7e 0e f9 3c f7 f5 fe bb 25 c4 27 bb
       0.0012961054 0.030402418 -0.007780786 -0.002559909
0002e0 31 73 fd 3a 90 df 7e 3c 2c ff b9 bc 9a 50 1f bc
       0.0019336698 0.015556231 -0.022704683 -0.009723807
0002f0 62 eb 1f 3a 79 b3 57 3c d8 64 2b 3c 74 10 e9 3a
       0.00061004434 0.013165348 0.010461055 0.0017781393
000300 7d 8c bf 3c 97 b3 a7 bb 8e 1e 24 3c ba 50 db bb
       0.02338242 -0.0051178443 0.01001705 -0.006692973
000310 8f 7c 87 bc 66 26 1c 3c a6 1b c8 bc 57 30 2d 3c
       -0.016538886 0.009530639 -0.024427246 0.010570607
000320 ab 76 41 3c 67 a1 66 bc fe c4 d4 bb 96 1e 85 ba
       0.011808078 -0.014076567 -0.00649321 -0.001015621
000330 b6 9f 35 bc 83 aa b2 bb c2 a6 e2 3c 1e 58 67 3a
       -0.011085441 -0.0054524555 0.027667407 0.0008825081
000340 6b 06 b8 3c 33 ff 44 bb 16 ba 32 3b 22 a7 ba ba
       0.022463998 -0.0030059337 0.002727156 -0.0014240483
000350 70 1d 84 3c e1 a7 56 bc c8 7b d7 3c ec b9 01 bc
       0.016127318 -0.013101549 0.02630414 -0.007917862
000360 77 c9 90 3c 57 2a 7a 3c dd 41 b7 3c c5 f7 1e 3b
       0.01767419 0.015268884 0.022370273 0.002425657
000370 7e 4c 95 3c e7 01 eb 3c 03 e2 fe ba f3 23 09 bc
       0.01822495 0.02868743 -0.0019446019 -0.008370387
000380 2d 12 38 3c 58 0c 78 3c 65 cd 03 3c ba e0 d9 3c
       0.011234802 0.015139662 0.008044575 0.026596416
000390 02 14 0a 3d 78 c2 13 3b 50 2b a5 3b 69 c7 b6 bb
       0.033710487 0.0022546332 0.0050405636 -0.0055779708
0003a0 d3 81 fd 3c 29 bd f3 3c df 62 46 bc 6a c4 94 bb
       0.030945694 0.029753285 -0.012108534 -0.004540016
0003b0 63 5d fe bb 90 6c fe 3c 49 22 61 bc 9c ac e1 bb
       -0.0077625974 0.031057626 -0.013741084 -0.0068870317
0003c0 5f 6e f2 bb 3d cb 77 3b b8 ae f7 3c b5 f1 f2 3b
       -0.007398411 0.0037810348 0.03023468 0.0074140676
0003d0 c4 81 80 ba b6 5a d2 3c 54 09 5d 3b 63 3e 78 bc
       -0.0009804298 0.02567802 0.0033727484 -0.015151593
0003e0 e0 7e bf 3c 2c 5d 96 bb cd 79 ef 3c 45 c1 ca 3c
       0.023375928 -0.0045887437 0.029232884 0.024750361
0003f0 9d 4a fc bb c6 a1 c1 3b cb b3 1b bc f4 83 bd 3c
       -0.0076993243 0.0059091775 -0.009503315 0.02313421

classifer.1.bias f4 [3]
000000 7d 6e 54 bb 0a 62 aa bc ab d5 da 3b
       -0.003241449 -0.020798702 0.0066783032
